{"format": "layers-model", "generatedBy": "keras v3.3.3", "convertedBy": "TensorFlow.js Converter v4.21.0", "modelTopology": {"keras_version": "3.3.3", "backend": "tensorflow", "model_config": {"class_name": "Sequential", "config": {"name": "sequential_17", "trainable": true, "dtype": "float32", "layers": [{"class_name": "InputLayer", "config": {"batch_input_shape": [null, 20, 1], "dtype": "float32", "sparse": false, "name": "input_layer_17"}}, {"class_name": "Conv1D", "config": {"name": "conv1d_34", "trainable": true, "dtype": "float32", "filters": 500, "kernel_size": [1], "strides": [1], "padding": "valid", "data_format": "channels_last", "dilation_rate": [1], "groups": 1, "activation": "linear", "use_bias": true, "kernel_initializer": {"module": "keras.initializers", "class_name": "GlorotUniform", "config": {"seed": null}, "registered_name": null}, "bias_initializer": {"module": "keras.initializers", "class_name": "Zeros", "config": {}, "registered_name": null}, "kernel_regularizer": null, "bias_regularizer": null, "activity_regularizer": null, "kernel_constraint": null, "bias_constraint": null}}, {"class_name": "Activation", "config": {"name": "activation_51", "trainable": true, "dtype": "float32", "activation": "relu"}}, {"class_name": "MaxPooling1D", "config": {"name": "max_pooling1d_34", "trainable": true, "dtype": "float32", "pool_size": [2], "padding": "valid", "strides": [2], "data_format": "channels_last"}}, {"class_name": "Conv1D", "config": {"name": "conv1d_35", "trainable": true, "dtype": "float32", "filters": 250, "kernel_size": [1], "strides": [1], "padding": "valid", "data_format": "channels_last", "dilation_rate": [1], "groups": 1, "activation": "linear", "use_bias": true, "kernel_initializer": {"module": "keras.initializers", "class_name": "GlorotUniform", "config": {"seed": null}, "registered_name": null}, "bias_initializer": {"module": "keras.initializers", "class_name": "Zeros", "config": {}, "registered_name": null}, "kernel_regularizer": null, "bias_regularizer": null, "activity_regularizer": null, "kernel_constraint": null, "bias_constraint": null}}, {"class_name": "Activation", "config": {"name": "activation_52", "trainable": true, "dtype": "float32", "activation": "relu"}}, {"class_name": "MaxPooling1D", "config": {"name": "max_pooling1d_35", "trainable": true, "dtype": "float32", "pool_size": [2], "padding": "valid", "strides": [2], "data_format": "channels_last"}}, {"class_name": "LSTM", "config": {"name": "lstm_17", "trainable": true, "dtype": "float32", "return_sequences": true, "return_state": false, "go_backwards": false, "stateful": false, "unroll": false, "zero_output_for_mask": false, "units": 512, "activation": "tanh", "recurrent_activation": "sigmoid", "use_bias": true, "kernel_initializer": {"module": "keras.initializers", "class_name": "GlorotUniform", "config": {"seed": null}, "registered_name": null}, "recurrent_initializer": {"module": "keras.initializers", "class_name": "OrthogonalInitializer", "config": {"gain": 1.0, "seed": null}, "registered_name": null}, "bias_initializer": {"module": "keras.initializers", "class_name": "Zeros", "config": {}, "registered_name": null}, "unit_forget_bias": true, "kernel_regularizer": null, "recurrent_regularizer": null, "bias_regularizer": null, "activity_regularizer": null, "kernel_constraint": null, "recurrent_constraint": null, "bias_constraint": null, "dropout": 0.0, "recurrent_dropout": 0.0, "seed": null}}, {"class_name": "Activation", "config": {"name": "activation_53", "trainable": true, "dtype": "float32", "activation": "relu"}}, {"class_name": "BatchNormalization", "config": {"name": "batch_normalization_17", "trainable": true, "dtype": "float32", "axis": -1, "momentum": 0.99, "epsilon": 0.001, "center": true, "scale": true, "beta_initializer": {"module": "keras.initializers", "class_name": "Zeros", "config": {}, "registered_name": null}, "gamma_initializer": {"module": "keras.initializers", "class_name": "Ones", "config": {}, "registered_name": null}, "moving_mean_initializer": {"module": "keras.initializers", "class_name": "Zeros", "config": {}, "registered_name": null}, "moving_variance_initializer": {"module": "keras.initializers", "class_name": "Ones", "config": {}, "registered_name": null}, "beta_regularizer": null, "gamma_regularizer": null, "beta_constraint": null, "gamma_constraint": null, "synchronized": false}}, {"class_name": "Flatten", "config": {"name": "flatten_17", "trainable": true, "dtype": "float32", "data_format": "channels_last"}}, {"class_name": "Dropout", "config": {"name": "dropout_17", "trainable": true, "dtype": "float32", "rate": 0.2, "seed": null, "noise_shape": null}}, {"class_name": "Dense", "config": {"name": "dense_51", "trainable": true, "dtype": "float32", "units": 32, "activation": "relu", "use_bias": true, "kernel_initializer": {"module": "keras.initializers", "class_name": "GlorotUniform", "config": {"seed": null}, "registered_name": null}, "bias_initializer": {"module": "keras.initializers", "class_name": "Zeros", "config": {}, "registered_name": null}, "kernel_regularizer": null, "bias_regularizer": null, "kernel_constraint": null, "bias_constraint": null}}, {"class_name": "Dense", "config": {"name": "dense_52", "trainable": true, "dtype": "float32", "units": 1024, "activation": "relu", "use_bias": true, "kernel_initializer": {"module": "keras.initializers", "class_name": "GlorotUniform", "config": {"seed": null}, "registered_name": null}, "bias_initializer": {"module": "keras.initializers", "class_name": "Zeros", "config": {}, "registered_name": null}, "kernel_regularizer": null, "bias_regularizer": null, "kernel_constraint": null, "bias_constraint": null}}, {"class_name": "Dense", "config": {"name": "dense_53", "trainable": true, "dtype": "float32", "units": 2, "activation": "softmax", "use_bias": true, "kernel_initializer": {"module": "keras.initializers", "class_name": "GlorotUniform", "config": {"seed": null}, "registered_name": null}, "bias_initializer": {"module": "keras.initializers", "class_name": "Zeros", "config": {}, "registered_name": null}, "kernel_regularizer": null, "bias_regularizer": null, "kernel_constraint": null, "bias_constraint": null}}], "build_input_shape": [null, 20, 1]}}, "training_config": {"loss": "binary_crossentropy", "loss_weights": null, "metrics": ["accuracy", "precision", "recall", "f1"], "weighted_metrics": null, "run_eagerly": false, "steps_per_execution": 1, "jit_compile": false, "optimizer_config": {"class_name": "SGD", "config": {"name": "SGD", "learning_rate": {"module": "keras.optimizers.schedules", "class_name": "ExponentialDecay", "config": {"initial_learning_rate": 0.001, "decay_steps": 100000, "decay_rate": 0.96, "staircase": true, "name": "ExponentialDecay"}, "registered_name": null}, "weight_decay": null, "clipnorm": null, "global_clipnorm": null, "clipvalue": null, "use_ema": false, "ema_momentum": 0.99, "ema_overwrite_frequency": null, "loss_scale_factor": null, "gradient_accumulation_steps": null, "momentum": 0.9, "nesterov": true}}}}, "weightsManifest": [{"paths": ["group1-shard1of2.bin", "group1-shard2of2.bin"], "weights": [{"name": "batch_normalization_17/gamma", "shape": [512], "dtype": "float32"}, {"name": "batch_normalization_17/beta", "shape": [512], "dtype": "float32"}, {"name": "batch_normalization_17/moving_mean", "shape": [512], "dtype": "float32"}, {"name": "batch_normalization_17/moving_variance", "shape": [512], "dtype": "float32"}, {"name": "conv1d_34/kernel", "shape": [1, 1, 500], "dtype": "float32"}, {"name": "conv1d_34/bias", "shape": [500], "dtype": "float32"}, {"name": "conv1d_35/kernel", "shape": [1, 500, 250], "dtype": "float32"}, {"name": "conv1d_35/bias", "shape": [250], "dtype": "float32"}, {"name": "dense_51/kernel", "shape": [2560, 32], "dtype": "float32"}, {"name": "dense_51/bias", "shape": [32], "dtype": "float32"}, {"name": "dense_52/kernel", "shape": [32, 1024], "dtype": "float32"}, {"name": "dense_52/bias", "shape": [1024], "dtype": "float32"}, {"name": "dense_53/kernel", "shape": [1024, 2], "dtype": "float32"}, {"name": "dense_53/bias", "shape": [2], "dtype": "float32"}, {"name": "lstm_17/lstm_cell/kernel", "shape": [250, 2048], "dtype": "float32"}, {"name": "lstm_17/lstm_cell/recurrent_kernel", "shape": [512, 2048], "dtype": "float32"}, {"name": "lstm_17/lstm_cell/bias", "shape": [2048], "dtype": "float32"}]}]}